model.bin (torch, 60024 bytes, 26 tensors)

linear1.weight f4 [128, 8]
000000 0e 99 39 be 7c 7e 59 be 77 1d a5 3c 69 d9 90 3d
       -0.18124792 -0.21239656 0.020155651 0.07072718
000010 ac e9 ac bc dc 10 10 bd 64 08 83 bc 0d de 81 bd
       -0.021107517 -0.03517233 -0.015995212 -0.06341181
000020 4d 9c 66 bd 44 44 ab bd dd 07 02 3e 2f 64 48 3e
       -0.056301404 -0.0836263 0.12698312 0.19569467
000030 9c bd 94 3d 9a 48 3e 3d 5f 8b 69 3c 5c d8 93 bd
       0.072627276 0.046455957 0.01425442 -0.07219002
000040 fc 41 b0 bc 08 70 91 bc 7f fa 99 bc cc 8e bd bc
       -0.021515839 -0.017753616 -0.018796204 -0.02313938
000050 4e eb 12 bd 3a 76 1d bd 99 29 66 3d 8f 9a 34 bd
       -0.035868935 -0.038442828 0.056192014 -0.04409271
000060 50 15 ac 3b c6 90 8c 3b 4d fd a4 3c ce 64 3d 3c
       0.005251564 0.0042897193 0.020140314 0.011559678
000070 ef 11 a3 3c b2 7a 9b 3c db fc a5 3b b9 e2 6d bc
       0.019906012 0.018979404 0.005065543 -0.014519387
000080 67 c6 3f bc 33 e3 51 be 5e 9b b5 bf ce a4 cf bc
       -0.011705018 -0.20496826 -1.4188039 -0.02534714
000090 8b 85 80 be 52 f7 de 3f b1 a2 37 3e f8 cb a8 3e
       -0.25101885 1.7419226 0.17933156 0.32968116
0000a0 9c 3e 6c 3e 4b 72 bd 3d fa 4d cd 3c 1c 94 9a 3e
       0.23070759 0.09250315 0.025061596 0.30191123
0000b0 27 37 11 3f 9f 9b 69 3f d4 76 08 be ef 9c 0a 3e
       0.5672478 0.91253084 -0.1332658 0.13536428
0000c0 44 79 99 3c ac 06 79 3c 06 80 b8 be 20 bd 4c 3d
       0.018734582 0.015199345 -0.36035174 0.04998505
0000d0 c0 4e 54 be a4 79 4b bd 72 b8 dc 3d 1b 94 bf 3e
       -0.20733166 -0.049676552 0.10777368 0.37417683
0000e0 ba b0 0c 3c 28 3b e4 3c 20 19 d0 3c f1 18 6c 3d
       0.008587057 0.02786024 0.025402606 0.057640973
0000f0 f6 48 05 3d 84 02 3e 3d bc 75 54 3d c1 14 36 b9
       0.032540284 0.046389118 0.051870093 -0.00017364604
000100 39 ec 08 3e 9f f8 90 3e bc 56 50 bf d8 4b 5c bf
       0.13371362 0.28314683 -0.81382346 -0.8605323
000110 8c fe 10 3e a6 41 c3 3f ee 06 a9 bf a3 24 04 3e
       0.14159602 1.5254409 -1.320524 0.12904601
000120 00 aa 9d 00 00 ff 66 80 80 0d 3b 81 00 a7 8a 80
       1.4479157e-38 -9.458697e-39 -3.435616e-38 -1.2733207e-38
000130 00 64 58 00 00 cd 8b 00 00 95 d4 80 00 c7 18 80
       8.117397e-39 1.2838674e-38 -1.9522576e-38 -2.27544e-39
000140 bf b9 15 3b 20 3f a0 3e 14 cf 7b 3f 4d d4 32 3d
       0.002284631 0.3129816 0.9836285 0.043659497
000150 f7 f2 f9 3e b1 22 0d c0 90 d7 9e be 5f 26 34 bf
       0.4881818 -2.2052424 -0.31023836 -0.7037105
000160 b8 eb 3d 81 86 61 1d 81 90 0c cc 00 d8 e5 1f 80
       -3.4882937e-38 -2.8906315e-38 1.8738948e-38 -2.929353e-39
000170 da 38 95 81 b8 8a 40 00 c0 49 9a 80 58 dd 51 80
       -5.4815534e-38 5.927235e-39 -1.4169123e-38 -7.518078e-39
000180 4c df 31 bb 00 8b e9 3e f9 06 0e bf 64 d0 82 3f
       -0.0027141152 0.4561386 -0.5547939 1.0219846
000190 94 22 09 bf 0e a9 3a be 61 6e 9e be 5a 92 c8 3f
       -0.5356839 -0.18228552 -0.30943587 1.5669663
0001a0 4a b8 ba 3e 02 b4 85 3e ed b1 bd 3d a4 63 d0 bc
       0.36468726 0.26113898 0.09262452 -0.025438137
0001b0 68 ba c7 3d 55 88 16 3e 6f dc c9 bd 57 79 0d 3e
       0.09752351 0.14700444 -0.098564975 0.13815819
0001c0 b0 04 d8 3e 0a 56 93 ba f2 89 3a bf 6c be 1b 3f
       0.42191076 -0.0011240852 -0.7286674 0.60837436
0001d0 39 7b e8 be 74 b8 12 3e ed 0a 3c 3f 29 d4 8f 3e
       -0.4540651 0.14328176 0.7345417 0.28091553
0001e0 4e b9 b4 bc 81 04 ae bc 80 fb ab bd 5a 5f df bb
       -0.022061016 -0.021242382 -0.08397579 -0.0068167867
0001f0 5f d1 81 bd 38 ae 0c bd a2 d4 aa 3c 7e 2e d9 bb
       -0.063387625 -0.034345835 0.020853344 -0.0066278568
000200 49 b2 2c 3d 50 b1 f9 3d c2 35 44 be 54 f4 7a 3f
       0.042162213 0.12192023 -0.19161132 0.98029065
000210 4a 9d 98 3e c5 79 80 bd 52 39 16 3e 4a c3 e7 3f
       0.29807502 -0.06273226 0.14670303 1.8106472
000220 44 98 94 3d 4b 03 4e 3f c1 6c 3c 3f 4a 4f 26 be
       0.07255605 0.80473775 0.73603445 -0.16241184
000230 8c 97 59 3e 5b 86 c2 bf 72 64 19 bf 82 2f 0e c0
       0.21249217 -1.5197252 -0.5991889 -2.2216496
000240 4c 5e 7a 3c 0a f4 af bb 35 c9 7a be 94 9e a3 3f
       0.015281271 -0.005369668 -0.24490817 1.2782769
000250 3e d4 d3 3d 9c 53 cf 3e 3e bd b9 3d 42 2c d3 3f
       0.10343216 0.40493476 0.09069298 1.6497881
000260 1f e4 91 81 9e 5c 74 81 26 26 b1 01 04 19 35 81
       -5.3591925e-38 -4.4882172e-38 6.507427e-38 -3.3262397e-38
000270 44 ec fa 00 0e 96 01 01 77 86 29 01 da 09 11 01
       2.304363e-38 2.3801217e-38 3.1136871e-38 2.6639362e-38
000280 61 ff ae ba c8 1f 12 bd ad fb ee bd 2b 58 6c bd
       -0.0013351255 -0.03567484 -0.11669097 -0.05770127
000290 2b 34 9b bd 55 bc 39 bd fe 85 a1 3c b8 13 5d 3c
       -0.075783096 -0.045345623 0.019717213 0.013493471
0002a0 63 4c d8 bd ed 65 c0 be f5 57 19 bf 0e f3 e5 3e
       -0.105614446 -0.37577763 -0.59899837 0.44912
0002b0 2c 5f 07 3e 7f 02 e0 3e 63 18 f2 3d 44 df 70 3f
       0.13219899 0.43751904 0.11821058 0.94090676
0002c0 1c 7e 31 00 3c 84 ac 01 ba c8 ae 81 c2 df dd 80
       4.545179e-39 6.337257e-38 -6.4205534e-38 -2.0375914e-38
0002d0 8a f0 73 80 7a 3f 5f 01 28 07 c2 00 c0 7c 64 80
       -1.0647371e-38 4.1004173e-38 1.7818653e-38 -9.228301e-39
0002e0 00 53 8f 01 00 d1 07 00 00 f9 c0 80 00 ee 9d 81
       5.2649003e-38 7.17824e-40 -1.772174e-38 -5.8014205e-38
0002f0 00 f5 b1 80 00 ee b2 00 00 48 58 01 00 5b 8d 81
       -1.6342772e-38 1.6432097e-38 3.9724592e-38 -5.19258e-38
000300 df 97 1d 81 e4 74 6a 01 b1 21 18 01 36 51 0a 81
       -2.8945308e-38 4.3062877e-38 2.7942163e-38 -2.5404863e-38
000310 7d e6 28 81 88 c6 91 81 1f d3 9b 81 0a 05 c2 80
       -3.1022094e-38 -5.3549466e-38 -5.724095e-38 -1.7817894e-38
000320 6e b2 18 3d b6 bc a6 3e be 2a 62 3f f4 6b 5d bf
       0.03727954 0.3256585 0.8834647 -0.8649285
000330 43 25 f3 3e 40 88 4f bf 71 37 10 3f 9a b6 6e bf
       0.47489366 -0.81067276 0.56334597 -0.9324738
000340 0f ed e2 3c 56 c8 e6 3e a1 eb 7f 3f 11 a7 ad be
       0.027700929 0.4507472 0.99968916 -0.33916524
000350 19 9a b6 3e e0 7e 02 c0 7e 6f dd bd 00 8d b6 bf
       0.35664442 -2.0389938 -0.10812281 -1.426178
000360 15 13 19 3e 7f 1d 29 3f 75 89 60 3f 60 7a a1 3d
       0.14948685 0.6606063 0.8770974 0.07884669
000370 bd 41 f3 be 4b 9a 17 bf d8 1f 9e bf 46 86 c9 bf
       -0.47511092 -0.5921981 -1.2353468 -1.5744102
000380 8a 3a 43 98 1c d1 77 97 82 a8 3c 9a 8d 8a 42 1a
       -2.5232714e-24 -8.007394e-25 -3.9013608e-23 4.023018e-23
000390 c3 db 15 1a c7 e1 ba 19 c1 0f 19 1a cc 2c 27 18
       3.099e-23 1.932314e-23 3.1652384e-23 2.160686e-24
0003a0 80 03 98 81 80 41 84 81 80 ea 8e 01 00 de 57 81
       -5.5841004e-38 -4.858313e-38 5.2499053e-38 -3.964854e-38
0003b0 80 90 6e 01 80 30 1b 01 80 11 a6 01 00 7c 74 00
       4.381737e-38 2.85038e-38 6.100388e-38 1.06974e-38
0003c0 2e 9a 28 3d 17 84 26 be 4d f0 34 3f db 9f b7 bf
       0.041162662 -0.16261326 0.7067917 -1.4345659
0003d0 80 fe a2 3e 66 ad 37 3f d1 19 b3 3f d6 64 2a 3f
       0.31834793 0.7174896 1.3992254 0.66560113
0003e0 22 8f 06 3e e3 10 f6 3e cb cd d9 3f d4 3c 61 be
       0.13140538 0.4805976 1.7015928 -0.2199586
0003f0 b7 b0 8d bd 70 5e 69 bf 22 12 8a bf 11 fb 43 bf
       -0.06918471 -0.91159725 -1.0786784 -0.7655497

linear1.bias f4 [128]
000000 54 c3 a4 bd e8 48 02 80 27 32 db bc 81 21 08 80
       -0.080450684 -2.09825e-40 -0.026757313 -7.46703e-40
000010 46 05 80 3e c3 c6 c9 bb 2c 61 aa 00 33 b7 9b 00
       0.25004023 -0.0061577274 1.5646893e-38 1.4300221e-38
000020 6b 9f 18 bf 00 d9 40 01 78 89 6e bf 98 0a 4d 81
       -0.5961825 3.542052e-38 -0.9317851 -3.7660154e-38
000030 76 35 20 3d c1 4c e1 bd ce 85 03 bf 18 07 b7 3c
       0.039113484 -0.11000968 -0.51376045 0.02234225
000040 4e 00 84 3f 69 e6 f1 be 0b 53 36 3f 86 8f 4d 00
       1.0312593 -0.47246101 0.71220464 7.12282e-39
000050 e3 94 b8 3d ad 64 87 3e c8 0e 9d 01 40 c8 a5 81
       0.09012773 0.26443997 5.76939e-38 -6.089877e-38
000060 2c 35 8d 81 8e 43 a4 3e af 4c ca 3e 9b 7c 83 bf
       -5.187152e-38 0.3208279 0.3951163 -1.0272402
000070 96 ef 4b 8f 00 2a 51 81 68 11 37 bf 3a 96 e8 bf
       -1.0054815e-29 -3.841737e-38 -0.71510935 -1.8170846
000080 4b 1c 7d 80 52 79 02 3f ac a5 be 3d 52 64 0e bf
       -1.1489587e-38 0.5096637 0.09308943 -0.55621827
000090 b0 39 1b 81 14 e6 fd be 98 5f 93 00 04 a1 c4 3d
       -2.8510393e-38 -0.49589598 1.353411e-38 0.09601024
0000a0 78 2c a4 3f 53 f7 25 00 35 2c 0f 01 bf ab 09 3f
       1.2826071 3.486637e-39 2.629667e-38 0.5377769
0000b0 94 76 06 01 f0 b7 8e 80 54 a3 58 3e 57 ab 13 23
       2.469699e-38 -1.3106625e-38 0.21156055 8.005169e-18
0000c0 00 be cf 00 97 29 34 3e bf 93 18 bd b7 d4 d9 be
       1.9078107e-38 0.1759399 -0.037250277 -0.425451
0000d0 3e 82 9e 80 79 21 14 bd 64 95 09 3f 2f 95 bd 3d
       -1.455673e-38 -0.036164735 0.53743577 0.0925697
0000e0 ec 8c 95 bf f1 b7 9e 3f 40 e7 26 3f 84 19 00 3d
       -1.1683631 1.2399884 0.6519661 0.031274334
0000f0 58 6f 8b bf 80 f7 09 81 3a 66 38 3f 69 a6 8b 00
       -1.0893354 -2.5340498e-38 0.72030985 1.282483e-38
000100 34 de 49 3f 82 92 bd bc 88 a6 53 bf 43 f6 80 3f
       0.7885468 -0.02314115 -0.8267598 1.0075153
000110 fb a7 77 bf e1 a4 bf 3e 42 41 d9 3d 05 f4 cb be
       -0.9674069 0.3743048 0.1060815 -0.3983461
000120 d5 56 10 3d c5 d7 67 01 70 75 3d 3f df bb a9 3e
       0.03523906 4.2582806e-38 0.7400732 0.33151147
000130 25 22 f4 3d ea 33 13 3f 7e ee 10 b2 88 a0 87 01
       0.11920575 0.5750109 -8.43613e-09 4.982152e-38
000140 b1 a6 39 bf 32 10 36 3f 7d df 55 00 a0 04 55 be
       -0.72519976 0.7111846 7.88619e-39 -0.20802546
000150 8c b1 8e bd 83 42 6a bf 08 90 92 3e 1f d5 ad 3f
       -0.06967458 -0.9150774 0.28625512 1.3580664
000160 63 36 44 00 52 c8 b6 3e 46 c3 36 3e 44 7f 86 bc
       6.264324e-39 0.35699707 0.17847928 -0.016418107
000170 97 ed 94 be c5 18 01 bf c0 9f 93 80 c0 56 82 81
       -0.29087517 -0.5042842 -1.3557125e-38 -4.787894e-38
000180 dc 2e 9b 81 24 d2 89 00 36 43 0d ba 80 1d bb 81
       -5.700525e-38 1.2656847e-38 -0.00053887384 -6.873528e-38
000190 4c 2d c3 3b a1 0c 7c 3f fe 4c fa 3b 7c 89 19 b2
       0.0059563275 0.9845677 0.0076385727 -8.9370324e-09
0001a0 75 3a 6b 80 80 d7 32 81 7e 3a 6f 3c df a5 ee 3d
       -9.847369e-39 -3.284805e-38 0.014601348 0.11652731
0001b0 34 16 28 3f 31 cf 0f 3c 2a 5e 4c 3f 0c d2 d9 bc
       0.6565888 0.008777426 0.7983118 -0.026589416
0001c0 78 e4 b3 3f 79 28 69 bf 89 8f 3f 80 5f 0b 3e 80
       1.4054098 -0.9107738 -5.837127e-39 -5.69788e-39
0001d0 b0 dd b6 3e 30 07 38 3f fd 59 73 3e 54 7c 31 3f
       0.3571601 0.7188597 0.23764797 0.69330335
0001e0 21 2a 18 80 c3 1b 94 00 b8 2e 53 3c f0 20 d4 bd
       -2.219165e-39 1.3601612e-38 0.012889557 -0.10357845
0001f0 b4 cd b0 3e 59 dd 97 3a e4 08 72 bd 4b bc 5e be
       0.3453194 0.0011586352 -0.05909051 -0.21751516

bn1.weight f4 [128]
000000 75 0a 5d 3e 0b d3 c6 3b a0 13 31 bc d6 c9 3a bc
       0.2158602 0.0060676388 -0.010807902 -0.0114006605
000010 b7 07 73 3f f0 36 ae 3e 79 ca b1 3e 97 85 0d ba
       0.94933647 0.3402629 0.34724787 -0.00053986296
000020 a7 63 03 3f 00 08 c0 01 17 59 86 3f 80 60 67 00
       0.5132393 7.054114e-38 1.0495938 9.493674e-39
000030 d8 3b 4a 3f 36 0a 1d 3e f7 fb f2 3e 98 cd 23 3d
       0.78997564 0.15335926 0.4745786 0.03999099
000040 ee 1e 9b 3f de 11 a4 3f 6c cb 63 3f 93 cf 0e 00
       1.2118814 1.2817953 0.8898227 1.36016e-39
000050 fd bd f8 3d 8d 68 c2 3e cd 21 94 80 00 cc 45 81
       0.121456124 0.3797039 -1.3603779e-38 -3.6329548e-38
000060 e8 63 40 00 f9 21 f3 3e 38 27 97 3f 63 a0 0c 3f
       5.913311e-39 0.47486857 1.1808844 0.5493223
000070 a3 90 ee 19 00 37 09 80 ad c4 7e 3f 83 93 75 3e
       2.4667042e-23 -8.4625e-40 0.99518853 0.23982053
000080 a8 38 81 bb 63 26 96 3f 11 7c 27 3d 3b e7 12 3f
       -0.0039435215 1.1730465 0.040889803 0.5738408
000090 60 99 33 3e fb 11 71 3f 5c e8 76 00 ff 7e 33 3f
       0.17538977 0.9416806 1.0919943e-38 0.70115656
0000a0 ea c6 58 3f 7c 5f 8b b9 f4 3f 83 3e 53 f9 71 3e
       0.8467852 -0.00026583287 0.2563473 0.23630266
0000b0 ea 91 5e 80 df c5 9e 80 bf 14 58 3f b0 73 a7 bb
       -8.684881e-39 -1.4580991e-38 0.84406656 -0.0051102266
0000c0 00 39 8a 01 f7 f6 06 3f 2e 84 5b 3b 82 32 ed 3e
       5.0774985e-38 0.5272059 0.0033495533 0.46327597
0000d0 71 a1 70 bc 74 ed 5a bb b4 c1 a5 3f 55 c7 0b 3e
       -0.014686928 -0.0033405693 1.2949739 0.13650258
0000e0 cb 03 a7 3f 22 d4 9f 3f fa e7 61 3f 09 96 94 3c
       1.3048033 1.2486613 0.88244593 0.018137949
0000f0 9e 31 a4 3f 38 a6 90 80 c0 59 7b 3f 3d 79 04 3f
       1.2827642 -1.328394e-38 0.9818382 0.51747495
000100 61 1e 67 3f 37 62 bb 3e 3a 45 04 40 e4 5b 77 3f
       0.9028073 0.3659837 2.0667253 0.9662459
000110 d8 42 cf 3e ef 90 c8 3f f7 16 f6 3e cb d7 2d 3f
       0.40480685 1.566923 0.48064396 0.679074
000120 9a 9f 04 bc 21 6d 22 3d 65 72 f5 3e 26 93 9f 3e
       -0.008094693 0.039654855 0.4793884 0.31166953
000130 12 05 70 3f f8 66 76 3f 95 2a 49 3e 3e f0 5e 81
       0.93757737 0.9625087 0.1964515 -4.0947326e-38
000140 bc 23 2b 3f b7 80 06 3f 9b 41 22 bb 6c eb 21 bd
       0.668514 0.52540153 -0.0024758342 -0.039531156
000150 05 10 71 3f b3 42 c8 3d 34 d5 6f 3f ac 54 e0 3e
       0.9416507 0.09778347 0.936847 0.438146
000160 7d d9 12 3d 84 e8 2d 3f f6 d7 a4 3f ee 65 03 3d
       0.035851944 0.67932916 1.2878406 0.03207963
000170 e7 ce c9 3f 7e 4c d1 3f 88 b1 96 81 e8 98 08 81
       1.5766267 1.6351469 -5.535604e-38 -2.508896e-38
000180 3d 90 4c 00 8e 9f e1 ba f6 80 55 3e 80 f6 9b 01
       7.03124e-39 -0.0017213689 0.20849976 5.729172e-38
000190 ae a2 5b 3c 5c 0d 9c 3f 0e 1d bb 3d 51 ad 16 3f
       0.013405485 1.2191577 0.09136401 0.5885821
0001a0 64 2c 70 bc 00 62 70 01 75 5f 8f bc 85 7a d3 3e
       -0.014659021 4.415135e-38 -0.017501572 0.41304412
0001b0 cb c9 f3 3e 05 57 77 bb d9 02 ba 3e d8 56 da 3d
       0.47614893 -0.0037741077 0.36330298 0.106610954
0001c0 30 3e 3d 3f dc 65 a7 3e 53 1b 26 bc 1b 3b 49 3c
       0.73923016 0.326949 -0.010138351 0.012282158
0001d0 c5 20 97 3f 39 9e 7f 3f fd 9c 0e 3f 51 08 75 3f
       1.1806875 0.99850804 0.55708295 0.95715815
0001e0 25 5d 87 bb 0b b0 bf 3c da 23 44 3e e7 77 f4 3e
       -0.0041309767 0.023399374 0.19154301 0.47747728
0001f0 7b 84 aa 3e b9 4d af 3d 40 b2 f9 3e 02 19 a6 3f
       0.333042 0.08559746 0.48768806 1.2976382

bn1.bias f4 [128]
000000 46 e7 1b bf 16 bf b6 bc e9 61 22 bd 1f 19 4c bd
       -0.6089977 -0.022307914 -0.039644156 -0.049828645
000010 51 03 cd bf 70 75 99 be fc 8d 89 bf ac 21 5b bd
       -1.6016637 -0.2997241 -1.0746455 -0.05349891
000020 14 eb d0 be 2c 27 e6 bc 19 e1 b6 be 16 41 2a bb
       -0.4080435 -0.02809485 -0.3571861 -0.0025978736
000030 71 ba ee bf 04 23 ff bc a0 83 2b bf c7 95 36 be
       -1.8650647 -0.031144626 -0.6699772 -0.17830573
000040 78 2c d4 bf c0 f4 a1 bf a3 eb ab bf 4d eb 85 a8
       -1.6576071 -1.2652817 -1.3431286 -1.4868012e-14
000050 c8 e5 95 be 63 80 24 3d 40 e4 01 bd 68 fe 00 bd
       -0.29276872 0.0401615 -0.031711817 -0.03149262
000060 a5 52 fb bc 74 6d 72 be ec ba 8c bf 16 aa 89 be
       -0.030679056 -0.23674566 -1.0994544 -0.26887578
000070 2a 1c 02 bd fc e3 90 b8 cd 3f a1 bf f6 3a c0 bd
       -0.03176514 -6.9089205e-05 -1.2597595 -0.09386246
000080 87 0b f5 bc 4a 1d 63 bf c2 a3 d4 bd 3b 11 16 be
       -0.029912723 -0.88716567 -0.10382797 -0.1465501
000090 67 dc 12 bf 3a a5 f9 bf fa b9 af bc d2 8e 18 bf
       -0.5736756 -1.9503548 -0.021450985 -0.59592927
0000a0 7f 79 4b bf 08 a6 54 bd 1e 17 6d bf d6 a8 0b be
       -0.79482263 -0.051916152 -0.926134 -0.13638625
0000b0 2e eb ef bc eb 8b f4 bc ec 01 aa be a4 ff b2 bc
       -0.029286947 -0.029851874 -0.3320459 -0.021850415
0000c0 00 55 8f bc 53 22 1d bf b1 ae 11 bd de 10 cf bd
       -0.017496586 -0.613805 -0.03556699 -0.10110639
0000d0 38 19 4b bd 9e c0 28 bd c6 7a 8a bf 2f ea f4 bd
       -0.049584597 -0.04119932 -1.0818717 -0.119587295
0000e0 1b 1e 7d bf 5d 89 55 bf 97 57 47 bf d0 b2 a2 bd
       -0.9887406 -0.83412725 -0.77868026 -0.07944262
0000f0 a7 b0 96 bf 10 d0 fc aa 18 23 cd bf 08 da bc bf
       -1.177266 -4.4908565e-13 -1.6026335 -1.4754038
000100 5f 07 e9 bf ea 5a 6f be a4 d8 ae bf bd de 53 bf
       -1.8205374 -0.23374525 -1.3659863 -0.82761747
000110 a1 f5 ee bc 51 a2 60 bf 83 63 ad be d0 96 0e c0
       -0.02916986 -0.87747675 -0.33864984 -2.2279549
000120 4c 16 46 bd f0 14 20 be 69 46 a4 be b9 2c 90 bf
       -0.048361108 -0.15632987 -0.3208497 -1.1263648
000130 2e 0f 3e bf bd 4e 89 bf 63 59 07 bf b3 d1 01 bd
       -0.7424191 -1.0727154 -0.5287077 -0.031694125
000140 af 8a 1b bf 22 0c ae bf 04 4b 0c bd ef 81 3f be
       -0.6075849 -1.3597453 -0.034251228 -0.1870191
000150 36 9c cb bf eb ad c8 be 10 ff 6a bf e6 7a c6 be
       -1.5907047 -0.3919519 -0.91795444 -0.3876564
000160 68 dd 50 be f7 6c f7 bf 63 67 a3 bf 3e 3d 0d 3e
       -0.2039696 -1.9330128 -1.2765926 0.13792893
000170 a6 7c d9 bf 1c 4d fb bf 64 ba 5d bc a3 6e 9e b2
       -1.6991165 -1.9632907 -0.0135332085 -1.8443933e-08
000180 90 c2 80 ba 35 0f 0f bd da 12 30 bf 83 95 70 bc
       -0.0009823609 -0.034926612 -0.68778765 -0.014684084
000190 fe 12 69 bd 12 d4 62 bf f2 ef 0b 3f f6 e8 f8 bf
       -0.056902878 -0.88604844 0.54663 -1.9446094
0001a0 ad 1f 65 bd 67 d4 bd bb 86 6a 34 bd ad 45 c9 3e
       -0.05593841 -0.0057931426 -0.0440469 0.3931097
0001b0 0a 12 a5 be 52 f6 18 bc 6a f0 2f bf 5a 9f 26 3d
       -0.32240325 -0.009336071 -0.6872622 0.040679313
0001c0 db 6c 74 bf af 22 76 be 7a 02 40 bd 4d af 1e bd
       -0.954786 -0.24036668 -0.04687736 -0.0387414
0001d0 34 c3 ae bf 39 93 6a bf 12 e5 06 bf a4 f9 9e bf
       -1.3653321 -0.91630894 -0.52693284 -1.2419934
0001e0 93 35 46 bd 06 37 c7 bd 58 c9 10 bf ea 86 9a be
       -0.048390936 -0.09727292 -0.56557226 -0.30181056
0001f0 ee 93 05 be e1 c4 8c be 89 ae db bf ef f0 8f bf
       -0.13044712 -0.27493957 -1.7162639 -1.1245402

bn1.running_mean f4 [128]
000000 b9 18 8b be 0e 3a c2 3d 4a 42 b2 bd 3b cc f6 3c
       -0.271673 0.09483729 -0.0870405 0.030126682
000010 91 c0 3d 3e 38 0c 56 3f d1 b9 97 bd a9 cb c4 3d
       0.1853049 0.83612394 -0.074084885 0.096091576
000020 b8 10 67 bf 8e 2b cc 00 78 f3 a3 bf ca 77 ed 81
       -0.90259886 1.8750066e-38 -1.2808676 -8.723194e-38
000030 12 be f1 3e c6 c2 a4 3e 56 a9 5c be ec 3f 97 bd
       0.47215325 0.3217985 -0.21548972 -0.07385239
000040 59 58 09 40 48 8e a3 bf 29 85 ed 3f d0 64 d7 00
       2.1460173 -1.2777796 1.8556262 1.9780796e-38
000050 19 5c 18 bd 7a 64 06 3f 3f d2 a4 01 dd 6e b9 81
       -0.037197206 0.52497065 6.0545774e-38 -6.811735e-38
000060 54 44 0d 82 73 ad b3 3e 3c 02 3f be 77 f8 d1 bf
       -1.0378653e-37 0.3509327 -0.18653196 -1.640395
000070 04 16 00 97 d2 d2 ea 80 7b e1 3d 3e 28 ec e9 bf
       -4.138682e-25 -2.1565134e-38 0.18543045 -1.8275194
000080 81 8a f8 bd d1 f2 65 3a df ff 4c be 1c b0 d9 be
       -0.121357925 0.0008771839 -0.20019482 -0.42517173
000090 42 fe 77 bf 6f 9b ab bd 88 ae fa 80 4f 15 29 3f
       -0.9687234 -0.08379256 -2.3021484e-38 0.6604814
0000a0 c9 69 14 40 16 74 6e 3d 1d e4 34 3f 5d 9a d0 3f
       2.3189566 0.058216177 0.70660573 1.6297108
0000b0 16 4b 01 02 9f d0 1e 01 5a b1 8b be 67 83 ea be
       9.498972e-38 2.9169695e-38 -0.27283746 -0.45803377
0000c0 a1 9f 38 01 09 08 f9 3f 4d 76 a9 bd d8 a4 a1 3e
       3.390999e-38 1.9455577 -0.08274517 0.31571078
0000d0 a8 ce af bc d6 12 b0 bc 16 45 76 be 75 d6 e0 bd
       -0.021460846 -0.021493357 -0.24049792 -0.109784044
0000e0 65 27 01 c0 28 cd 55 3f 56 ad 2a be 35 9b e2 3d
       -2.0180295 0.8351617 -0.16667685 0.1106476
0000f0 e1 70 a5 bf b3 f2 30 82 69 89 fe 3f 4d 94 81 bf
       -1.2925073 -1.3000089e-37 1.9885684 -1.0123383
000100 cf 7d 88 3f d5 5b 16 3e 11 96 62 bf e3 58 58 3f
       1.0663394 0.14683469 -0.88510233 0.8451063
000110 b3 b7 8c 3f 08 d5 67 3e 43 5e 8f 3e 82 e7 f3 3e
       1.099356 0.22639859 0.28001603 0.47637564
000120 4d d7 cb 3d 17 8b 3f 3f 86 4b 27 3f fd b8 7a be
       0.09953175 0.7482161 0.65349615 -0.2448463
000130 d4 60 2f bf 4c fe 61 3f a4 39 f1 bd d0 c3 8a 01
       -0.68507123 0.8827865 -0.11778572 5.097417e-38
000140 fa c8 35 c0 88 ce 80 3f 0a 5f 39 3e 6e cc 78 bf
       -2.8403916 1.0063028 0.18102661 -0.97186935
000150 59 a7 13 3f 8e 21 92 bf 72 21 f5 3e 23 67 41 3f
       0.5767723 -1.141649 0.4787708 0.75548
000160 08 02 26 be 55 4d dd 3e 56 d2 3a bf ab a5 f5 3d
       -0.16211712 0.43223062 -0.729772 0.11994489
000170 e5 a6 97 bf 41 2b bb bf c5 15 34 01 c4 01 aa 81
       -1.1847807 -1.4622575 3.3076397e-38 -6.245067e-38
000180 88 17 64 80 27 be 8e bb dd f5 d5 bd 6f a2 a7 81
       -9.191991e-39 -0.004356164 -0.10447285 -6.157919e-38
000190 53 31 fc 3b d6 77 6c 3f 00 99 6b 3e 55 4b 5f 3e
       0.0076963096 0.92370355 0.23007584 0.2180608
0001a0 96 05 bd bd 28 aa 4d 81 14 84 2e 3e 55 aa db bc
       -0.09229581 -3.7774635e-38 0.17042571 -0.02681462
0001b0 ae b9 eb bf 53 26 45 3e df f3 89 3f 53 2b 97 3e
       -1.841604 0.19252901 1.0777549 0.2952524
0001c0 b9 23 05 40 63 ac 00 c0 f6 b3 c1 bd d9 1e ba bd
       2.0803053 -2.0105217 -0.09458153 -0.09087915
0001d0 82 99 19 3f e7 12 db 3f 4d bc c6 bf 9c f7 d3 3f
       0.5999986 1.7115144 -1.5526215 1.6559939
0001e0 1b 3e 86 bd 00 78 43 3e 38 ab f7 bd 5b 6f 3d bf
       -0.065548144 0.19088745 -0.12093204 -0.7399804
0001f0 9d 80 ec 3b 1f f1 f1 bd 77 40 f9 3e ad c1 3d be
       0.0072174803 -0.11813568 0.48681995 -0.18530913

bn1.running_var f4 [128]
000000 f6 2a 87 3c ab 8d 93 3c 56 0c f0 3a 3d 25 d9 39
       0.016499978 0.018011888 0.0018314223 0.0004141721
000010 14 67 44 3d e3 2d 83 3e 54 06 16 3d 4a 28 0f 3b
       0.047949865 0.25620946 0.03662713 0.0021844083
000020 c1 1e 8e 3e 04 00 00 00 9e c3 56 3d 04 00 00 00
       0.27757838 6e-45 0.05243265 6e-45
000030 16 53 2e 3e ac d2 6c 3d 5f 84 e6 3d c6 f2 68 3b
       0.17023882 0.0578181 0.112557165 0.0035545095
000040 dc 74 33 3e 2f 72 c8 3d ff 93 60 3e 04 00 00 00
       0.17525047 0.09787404 0.21931456 6e-45
000050 cf 2d f8 3b ae 8e ae 3c 04 00 00 00 04 00 00 00
       0.00757382 0.02130827 6e-45 6e-45
000060 04 00 00 00 ff 05 94 3d 55 05 00 3e 10 46 bf 3c
       6e-45 0.07227706 0.12502034 0.023348838
000070 0a 00 00 00 04 00 00 00 9c e1 5f 3d 6f 83 f3 3d
       1.4e-44 6e-45 0.054658517 0.11890303
000080 77 04 e7 3b 62 b5 a3 3d 6e 1b bd 3c 94 73 3c 3d
       0.007050093 0.079935804 0.023084369 0.04600866
000090 2a 97 89 3e 70 bd 80 3e 04 00 00 00 f7 c2 6c 3e
       0.26873142 0.2514453 6e-45 0.23121248
0000a0 73 a3 61 3d 3f 6c e6 3a c9 c4 4c 3e 32 7e 47 3f
       0.055087518 0.0017579867 0.19996943 0.77926934
0000b0 04 00 00 00 04 00 00 00 cd 7c 36 3d 5a 70 49 3d
       6e-45 6e-45 0.044552613 0.049179412
0000c0 04 00 00 00 46 c9 68 3f 30 1e ef 3a 58 1c d4 3d
       6e-45 0.9093212 0.001824325 0.10356969
0000d0 27 75 85 39 2f 88 96 3b 7d c0 d9 3c fe 8f 96 3d
       0.00025455022 0.004593871 0.026581043 0.07351683
0000e0 83 a4 8f 3d f8 9a a0 3d 58 47 fb 3d 1f 16 56 3c
       0.070138 0.07842058 0.12269467 0.0130667975
0000f0 13 02 6e 3d 04 00 00 00 4a c3 8a 3e 35 a5 05 3f
       0.058107447 6e-45 0.2710212 0.5220521
000100 27 15 68 3d aa fe 09 3d 60 60 31 3d 47 74 49 3d
       0.056660797 0.033690132 0.0433048 0.049183156
000110 53 72 11 40 e0 8c 48 3d d1 fc 01 3e 41 2f ab 3e
       2.2726028 0.048962474 0.12694098 0.3343449
000120 79 6a af 3a 68 4f af 3e a9 dd 6a 3e 27 4f a1 3d
       0.0013383172 0.3424027 0.22936119 0.07876425
000130 a5 b3 39 3d 30 8b 31 3d 53 6a 26 3c 04 00 00 00
       0.045337338 0.04334563 0.010157186 6e-45
000140 43 16 fc 3f 9d ba 1d 3f 2d 33 92 3c cd 74 9d 3e
       1.9694294 0.61612874 0.017846668 0.30753174
000150 56 00 1f 3e db ee c3 3d ac 2a 6f 3d 30 0a 23 3e
       0.15527472 0.095670424 0.058390304 0.15921855
000160 6e 89 47 3c 0d df 16 3e ef 05 07 3e b9 a9 05 3c
       0.012178762 0.14733525 0.13185857 0.008158141
000170 ca ad 35 3e e1 5b 29 3e 04 00 00 00 04 00 00 00
       0.17742077 0.16538955 6e-45 6e-45
000180 04 00 00 00 b1 11 d0 36 37 46 81 3c 04 00 00 00
       6e-45 6.2009426e-06 0.015780551 6e-45
000190 75 85 66 3b b4 15 a4 3d ef de cb 3d ed ac 06 3e
       0.0035174761 0.08011952 0.099546306 0.13151903
0001a0 9d bb 88 3b 04 00 00 00 61 36 00 3c c7 46 81 3d
       0.004172756 6e-45 0.007825465 0.06312328
0001b0 e1 0d 5e 40 88 98 59 3c 50 01 19 3e 9a 4d 5d 3d
       3.469597 0.013280995 0.14941907 0.054029085
0001c0 9e b7 b7 3d ba 71 d4 3e 36 f2 9b 3b 76 d9 95 3b
       0.08970569 0.41493016 0.0047590984 0.0045730425
0001d0 97 3f 9f 3d 44 09 a1 3d 5c 17 aa 3f 41 cb 43 3d
       0.07775801 0.078630954 1.3288379 0.04780126
0001e0 77 da a9 3a 3a 50 28 3c 3e c6 00 3c ba 8c 94 3d
       0.0012958784 0.010273034 0.007859765 0.07253404
0001f0 5a 87 4e 3d 8d f0 71 3b 5a 51 84 3e b2 c0 58 3d
       0.05042205 0.003691706 0.25843316 0.052918144

linear2.weight f4 [64, 128]
000000 c7 21 fb 3d e0 32 26 bd 75 7b 94 bc a4 d0 3e 34
       0.12262302 -0.040575862 -0.018125275 1.7771032e-07
000010 10 03 6f be ee 3d 0f 3d 61 7e b1 b8 5a d1 b8 bc
       -0.23341012 0.03497117 -8.4635576e-05 -0.022560764
000020 2c b7 34 bf 84 cb 41 3c cf 05 d9 3e ae a6 6e 00
       -0.70592 0.011828307 0.42387244 1.0161698e-38
000030 df 1b d6 be 7d 35 fc 3d 51 39 9a bf 87 63 3e bd
       -0.4181814 0.123148896 -1.2048742 -0.046481635
000040 4b 10 86 be ae 4f 3e c0 69 a9 d1 3c 78 ed 01 80
       -0.26184306 -2.9736133 0.025593476 -1.77023e-40
000050 70 f0 51 bd 78 7d fc be 15 1e 27 01 67 da 7c bc
       -0.05125469 -0.49314475 3.0694639e-38 -0.015432931
000060 d7 56 e1 3c 56 61 1c bf 10 d9 00 c0 e3 cd 75 bf
       0.027507229 -0.6108602 -2.0132484 -0.96017283
000070 d3 a5 01 bd aa d1 82 80 6b 62 94 bf ca e0 c3 bf
       -0.031652283 -1.2013828e-38 -1.1592535 -1.5302975
000080 08 7a ee 3c e7 e1 1c bf 7e 73 1d be f5 02 ba 3e
       0.029110923 -0.612822 -0.15376088 0.3633038
000090 b7 06 c8 3d 0c 1d 5d be f1 85 92 80 88 c9 32 3e
       0.09766906 -0.21593112 -1.3456032e-38 0.1745969
0000a0 75 07 28 be d4 6c be b9 c5 30 26 3e ff bf 2b bf
       -0.16409095 -0.00036320707 0.16229542 -0.6708984
0000b0 71 f0 0e bd e0 f5 6a 3b 00 92 82 3e 5f 38 09 3e
       -0.03489727 0.003585212 0.25502014 0.1340041
0000c0 3f 58 6b 00 cd f2 91 be ec f9 32 3d 27 80 70 3f
       9.858055e-39 -0.28505555 0.043695375 0.93945545
0000d0 5f d0 51 bb 60 03 8c bb ff 07 11 be 38 22 b6 be
       -0.0032015068 -0.0042728633 -0.14163207 -0.35572982
0000e0 b8 34 5c bf 64 d5 a8 be 19 a4 b5 bf 8e 5b 1f be
       -0.8601794 -0.32975304 -1.4190704 -0.15562269
0000f0 db 2f 8f be cd 20 90 80 ee a2 99 bf 2d 7e b4 a2
       -0.27966198 -1.3236078e-38 -1.2002847 -4.892269e-18
000100 7d 47 bb bf 1e 26 f6 be 8e f3 11 bf d9 6b d7 bd
       -1.4631191 -0.48075956 -0.5701226 -0.10518617
000110 cb a2 9a 3e d7 f6 8f 3e 65 5e 33 3e 29 eb c1 be
       0.30202326 0.2811801 0.17516477 -0.37874725
000120 bd 1e d3 bc 17 ae db be 46 63 9a bf b7 67 df bf
       -0.025771493 -0.42906258 -1.2061546 -1.7453526
000130 78 84 b8 bf 5b f1 a0 bf af 1f c6 bc 28 72 13 3d
       -1.4415426 -1.2573656 -0.02418503 0.03599754
000140 2f a2 10 bf 5f f4 0e bf 8f d2 af bc 3c 6c c5 3e
       -0.5649747 -0.5584163 -0.021462707 0.3855914
000150 d7 5a 3d c0 5c ae 50 bf 4c 21 30 be f4 bf d5 be
       -2.9586694 -0.8151605 -0.17200202 -0.4174801
000160 e2 c0 88 3d a1 a0 15 bf b2 a5 9e bf 4f ad a5 ba
       0.066774145 -0.58448225 -1.2394316 -0.0012640151
000170 56 b7 fb bf 0f ae 9a bf 3b bc 88 97 c0 51 7a 01
       -1.9665325 -1.2084368 -8.83631e-25 4.59764e-38
000180 ef cc 94 80 82 1b 95 80 e8 89 d9 b8 f4 51 6e 80
       -1.366517e-38 -1.3693357e-38 -0.000103730534 -1.0131304e-38
000190 ce 12 a5 bd 1e e9 9b 3f 07 d4 1e 3c 58 23 47 be
       -0.08060227 1.2180517 0.009694106 -0.19447076
0001a0 60 71 63 bc 02 d6 7f 00 8b ba 10 3c b0 a3 67 3e
       -0.013882011 1.173988e-38 0.008833538 0.22621036
0001b0 9e 1d e7 be 56 5f fa 3c 4e d3 01 bf a0 e8 4a 3e
       -0.45139784 0.030563038 -0.5071305 0.19815302
0001c0 2a 8b c8 be 9d d6 7d bf 36 79 29 3d 7f 0b 75 bc
       -0.39168674 -0.991556 0.04137536 -0.014956354
0001d0 79 c9 84 c0 ce 2c 00 bf fe 0a 46 bf c8 61 c9 bf
       -4.149594 -0.50068367 -0.7736052 -1.5732965
0001e0 8d bc 99 bb 94 da 5b 00 2e 28 d5 bc d7 14 46 bf
       -0.0046916665 8.435441e-39 -0.026020136 -0.7737555
0001f0 93 0e 00 3d 91 5d 98 bc d1 63 63 bf a7 b7 3a c0
       0.0312639 -0.018599303 -0.8882418 -2.9174592
000200 88 e7 86 3d 1f 0c a6 bc 53 11 80 3d ae d5 39 b5
       0.0658713 -0.020269452 0.06253304 -6.9228815e-07
000210 e0 63 f4 be 28 c3 02 bf 58 f0 ad b9 1b c4 10 3c
       -0.4773245 -0.51079035 -0.000331762 0.008835818
000220 17 c5 cb 3e 50 7f 0e 3b 7d 68 0b 40 27 22 ff 24
       0.39798805 0.0021743365 2.1782525 1.1064648e-16
000230 1c b0 c2 3e f6 88 15 bf 85 49 ae bd 33 0a 2e bd
       0.38024986 -0.5841211 -0.085101165 -0.042490195
000240 b2 2a 94 3e 10 ef 1d bf 43 49 33 3f 1d f6 0e 81
       0.28938824 -0.61692905 0.70033664 -2.6257859e-38
000250 aa 8f 7d 3c 61 63 c8 be fc 4d 53 80 f1 d5 b8 35
       0.015476147 -0.3913832 -7.650322e-39 1.3771333e-06
000260 9a d6 70 34 ca 9b 9f 3e fc b7 2e bd be d7 4d be
       2.2429813e-07 0.31173545 -0.04265593 -0.2010183
000270 17 7d ff 3c d4 b2 79 00 88 43 f5 bf 04 7b 90 bf
       0.031187577 1.1176246e-38 -1.9161234 -1.1287541
000280 0f 29 f3 3c 30 1b 52 be 28 32 b4 3d e5 9f 41 be
       0.029682664 -0.20518184 0.08798629 -0.18908651
000290 a3 de 8f bf 2b 2a 63 3e b4 aa 87 80 43 ad 60 3e
       -1.1239818 0.22184055 -1.2459029e-38 0.21941094
0002a0 73 e9 16 3f 3e 2d 08 bd 64 fb c2 3c 20 c8 a6 be
       0.58949965 -0.03324627 0.023801513 -0.32574558
0002b0 d1 02 ec bc 04 ff b2 ba 20 c5 c9 3e b1 ee 86 be
       -0.028809937 -0.0013656323 0.39408207 -0.26353982
0002c0 9f 21 8b 80 44 91 3c 3f 0b e1 8e 3d 37 2a be 3c
       -1.2777195e-38 0.7365916 0.06976517 0.023213489
0002d0 2e 2a 62 3c 7a a2 8a bc 76 0f a2 3e 51 c2 cc 3e
       0.013804002 -0.016923178 0.3165242 0.39992002
0002e0 7e 75 f2 be 8a fe 56 3d fe fe f0 3f a0 4e 3f 3c
       -0.47355264 0.05248884 1.8827817 0.0116764605
0002f0 58 e1 82 be e7 38 8a 80 32 c5 97 3e eb 1d 6d be
       -0.2556255 -1.2693711e-38 0.29642636 -0.23155944
000300 31 95 97 40 4a 26 81 be 38 92 70 bf cb 12 ea 3e
       4.736962 -0.25224525 -0.9397311 0.45717463
000310 fe 98 b7 3d b8 72 1b be 8d 68 cd bd 2e b2 19 3f
       0.08964728 -0.1518048 -0.10029707 0.60037506
000320 0d a6 01 bb 63 df 28 bf ab 20 82 be 44 5f 0c 3d
       -0.0019782812 -0.6596586 -0.2541555 0.03427054
000330 12 40 26 3f b5 e8 95 bf 6c 13 1a bd 43 83 dd bc
       0.64941514 -1.1711642 -0.03761618 -0.02704013
000340 0a 12 84 39 95 0d 30 3f 10 1f 65 bc de 00 51 bf
       0.00025190442 0.68770725 -0.013984457 -0.8164195
000350 e7 20 63 3c 07 9e 8d 3e 5f c0 bf be 59 4f 54 3e
       0.013862825 0.27659628 -0.37451455 0.20733394
000360 65 8f 24 3d 9a 0e 43 be 38 ee f9 3f 6f db 70 3c
       0.040175814 -0.19048539 1.9525824 0.014700755
000370 15 51 8f 40 de 61 b4 40 63 5b 9f 80 d0 ce fa 00
       4.4786477 5.6369467 -1.4634627e-38 2.3033064e-38
000380 af 1e 79 00 36 e3 77 80 9f 5b 80 bd e5 61 59 01
       1.1123102e-38 -1.1009932e-38 -0.06267475 3.992684e-38
000390 a8 79 4b bd 1c e4 7b be 3a db a5 3c 22 69 89 3e
       -0.049676567 -0.24598736 0.020246137 0.26838022
0003a0 15 9c 07 bd a2 f4 69 80 34 66 ae bc 26 b3 d7 3d
       -0.033107836 -9.730485e-39 -0.021288969 0.10532217
0003b0 d0 df e4 3e 7b 2b 32 3e 10 88 eb 3e 59 55 2c 3e
       0.44702005 0.17399399 0.46002245 0.16829433
0003c0 b6 ea 9a 3e 24 a2 a0 bf de 7b 8c 3c 9d 57 60 bb
       0.30257195 -1.2549481 0.017148908 -0.003423191
0003d0 a1 4f ca be c5 62 fa 3e 67 c7 15 be 94 5a 32 c0
       -0.39513877 0.4890348 -0.14626847 -2.7867785
0003e0 07 60 a8 bb bc e6 d1 06 1e 33 da 3c d8 bf a9 3f
       -0.0051384005 7.8956096e-35 0.026635703 1.3261671
0003f0 8f bb 31 bd 88 5d 9f 3b 8e 41 a9 3e 73 78 8d c0
       -0.04339176 0.0048634447 0.33057827 -4.4209533

linear2.bias f4 [64]
000000 ab 30 8e 3e cd 21 a5 be 42 10 22 3e 19 56 2c 3e
       0.27771506 -0.3225235 0.15826514 0.16829719
000010 4f 13 bd 3e d9 13 b6 3e 72 24 13 c0 4c fb a0 3e
       0.36928794 0.35562018 -2.2990994 0.31441724
000020 45 2f 1e bf db 10 11 bf 80 48 01 3e 84 ee a0 3f
       -0.6179088 -0.56666344 0.12625313 1.2572789
000030 3d 3d 4d 3d 6a 8c 88 3e 18 8f 87 bf 08 da 16 bf
       0.05010723 0.26669627 -1.0590544 -0.5892644
000040 73 bf 13 bf 62 9d d3 be 00 b2 4b bf 6f 68 97 3e
       -0.57714003 -0.4133101 -0.7956848 0.29571864
000050 23 35 dd 3d ee d0 54 bf c0 32 19 bd 8f 21 cf bd
       0.10801151 -0.831313 -0.037401915 -0.10113823
000060 c4 b1 82 be 91 97 ea bf 43 27 41 40 a0 3e 0f be
       -0.2552625 -1.8327504 3.0180213 -0.13988733
000070 d6 d6 52 be a7 2e 66 3f c0 56 82 01 19 e4 6d 3e
       -0.20589766 0.89914936 4.787894e-38 0.23231544
000080 31 89 9b be 3f f7 77 3f 11 64 b4 be 64 13 0a bd
       -0.30378106 0.9686164 -0.35232595 -0.0337099
000090 8e 95 5c bf 84 8b 83 bd c2 e7 29 be 5e 68 8b bf
       -0.861657 -0.06423095 -0.16592315 -1.0891225
0000a0 c1 27 0d 3f eb 6f 39 3f 90 a2 a6 3f f6 3c 18 3f
       0.55138785 0.724364 1.301836 0.5946802
0000b0 06 14 35 3f aa 4b a2 bb 4d 2b 3e bf ed e8 f3 3d
       0.7073368 -0.0049528675 -0.7428482 0.119096614
0000c0 f7 2e 8f 3e ab b0 ba 3e 71 6c b2 3f 80 61 57 3d
       0.2796552 0.36462912 1.3939344 0.052583218
0000d0 d0 8e 86 be 31 8c 87 bf 90 0d 1c 3f 59 3b 9c 3f
       -0.26280832 -1.0589658 0.60958195 1.2205611
0000e0 68 64 cd bf 7e 23 bc bf 60 3c 8e bf b2 be b9 3f
       -1.6046267 -1.4698331 -1.1112175 1.451132
0000f0 ea 11 95 3d ee 68 de bd f7 ff 43 3f ca 34 3c 3e
       0.072788075 -0.108598575 0.76562446 0.18379512

bn2.weight f4 [64]
000000 2a fc 51 3f 11 24 e8 3e 89 d6 3e bf 9e 7c 53 3f
       0.82025397 0.45340016 -0.74546105 0.82612026
000010 b3 0c da 3f f0 ba 39 3f 26 b1 80 3f b2 cd bf be
       1.7035125 0.7255087 1.0054061 -0.3746162
000020 59 5f 7b 3f c7 14 06 3f b6 e5 0e 3f ee 36 3f 3f
       0.98192364 0.52375454 0.5581926 0.7469319
000030 71 cb 76 3f 3f a1 a3 3f dd a2 8c 3f 37 9b 15 3f
       0.96404177 1.2783583 1.0987202 0.58439964
000040 42 50 45 3f d0 4a db 3e bb a6 10 3f 3a b5 3c 3f
       0.7707559 0.42830515 0.5650441 0.7371403
000050 71 e0 91 3f 19 f7 80 3f 4e ff 9d 3f c7 b0 82 3e
       1.1396619 1.0075408 1.2343538 0.25525495
000060 2e 4e f0 3f a0 b2 6b 3f a5 2d f9 3e 09 b9 bf 3f
       1.8773859 0.92069435 0.48667637 1.4978343
000070 81 b8 44 3e 00 da b1 3f c0 28 a0 01 4a 06 2a 3f
       0.19211008 1.3894653 5.883319e-38 0.66415846
000080 15 7f 6c 3f 20 9a 78 3f 11 01 47 3f 90 4c 8a 3e
       0.9238141 0.97110176 0.77736 0.27011538
000090 7a 60 99 3f 08 ca 5e 3e 6a 96 9a 3f 94 d6 b9 3f
       1.1982567 0.21756756 1.2077153 1.4518609
0000a0 6e d0 bf 3e 37 4f 43 3f d5 98 10 3f a8 41 03 3f
       0.37463707 0.7629275 0.56483203 0.5127206
0000b0 0e 48 d5 3f e9 4a ab 3f 9d 89 d6 3f bc f9 eb 3e
       1.6662614 1.3382236 1.6760746 0.4608897
0000c0 f4 7f 35 3f b5 49 ae 3e fe 16 1c 3f 41 ca a9 3f
       0.70898366 0.3404061 0.60972583 1.3264848
0000d0 4a 8f 2c 3f 5c f8 08 3f 4c 48 93 3f ee 4b 50 3f
       0.6740614 0.53503966 1.1506438 0.8136586
0000e0 6a c7 16 3f a8 49 14 3f 09 15 77 3e de 90 5b 3f
       0.5889803 0.5792489 0.24129118 0.85767925
0000f0 64 31 9e 3f 5b b6 66 3f 2e b7 8d 3f 0b 45 53 3e
       1.2358823 0.90122 1.1071527 0.20631807

bn2.bias f4 [64]
000000 e1 1b 00 be a9 80 38 be 15 55 03 c0 c9 ce 99 bd
       -0.12510635 -0.1801783 -2.052068 -0.07510144
000010 5a b9 98 bf b5 b3 a7 be 8b a6 0b bf d7 d3 b8 3d
       -1.1931565 -0.32754293 -0.54551 0.0902478
000020 74 c4 67 bf 2f 55 a1 3e cf 72 39 be 28 b9 62 bd
       -0.9053414 0.31510302 -0.18110202 -0.05535236
000030 25 e6 9e bf 3a 45 4c bf 7d 98 4f bf cf 80 81 be
       -1.2413985 -0.7979313 -0.81092054 -0.25293586
000040 7a cf fb be 19 29 ba be fc 72 95 3c 94 ca 1f c0
       -0.4918173 -0.3635948 0.018243305 -2.4967394
000050 74 7e e0 bf f6 17 9f be 98 2d 45 bf ed c9 42 bd
       -1.753859 -0.31072968 -0.77022696 -0.047555853
000060 ec 52 6c bf 3f 96 fe be cc 47 be 3b 65 48 a9 bf
       -0.9231403 -0.49724004 0.0058068987 -1.3225218
000070 8a 2f 66 3f 3b 8d c0 bf fa a7 ff bc 25 67 a6 bd
       0.8991629 -1.50431 -0.031208027 -0.08125142
000080 b9 37 96 bf 4e e5 2a bf 0d 82 ed bd c3 62 a9 bf
       -1.1735755 -0.6675614 -0.11597071 -1.3233265
000090 d7 e2 07 bf 7f f2 65 3f bf 96 a2 be 63 fd 9f bf
       -0.53080505 0.89823145 -0.31755635 -1.2499202
0000a0 ba 18 29 be da 70 45 bf 71 cd 91 be f1 f0 83 bd
       -0.16513339 -0.7712532 -0.28477052 -0.0644244
0000b0 ae c3 b7 bf 93 97 dc bf 08 11 3e bf 31 6a 3a be
       -1.4356592 -1.7233757 -0.7424474 -0.18204571
0000c0 97 67 d9 bf c9 bb 1b 3d 7d 50 40 bf ad 24 86 bf
       -1.6984738 0.038020883 -0.75122815 -1.0479943
0000d0 46 03 8a bf ba 44 16 be 6a e8 e1 be 52 e9 be bf
       -1.0782249 -0.14674655 -0.4412263 -1.4914954
0000e0 9b 3e 8f be e7 64 32 be 31 2e 66 3f 5c 25 cc be
       -0.27977452 -0.17421304 0.8991423 -0.39872253
0000f0 4c da 6b bf 41 1e 52 be 82 bf 6d be df 74 56 3f
       -0.9212997 -0.20519353 -0.23217586 0.8377208

bn2.running_mean f4 [64]
000000 22 9f ca bf b8 cd a8 3d 47 5d de 3c 74 83 8d bf
       -1.5829813 0.08242363 0.027144087 -1.1055741
000010 de b0 f1 bf 1b 05 a4 bf f3 13 95 c0 9e 1d 3b 3f
       -1.88821 -1.2814058 -4.658685 0.7309207
000020 7d 4a e4 bf f6 c8 fb bf e2 52 b1 bf 36 86 1d c0
       -1.7835232 -1.9670703 -1.3853419 -2.4613166
000030 f8 d0 08 40 44 77 ef bf fd c8 5f c0 3e 6f 80 3e
       2.1377544 -1.8708272 -3.4966424 0.2508487
000040 ea a9 4e c0 d8 4d c7 3e 93 d4 4b c0 33 71 81 3f
       -3.2291207 0.38926578 -3.1848495 1.0112671
000050 bf 7c 16 bf 9f d7 15 c0 9d f8 63 c0 d4 82 8b bf
       -0.587841 -2.3412855 -3.5620492 -1.08993
000060 70 ea 07 c0 e3 cf 8a c0 6e 6e ec 3f f6 49 16 c0
       -2.123684 -4.337877 1.84712 -2.3482642
000070 e6 59 78 bf 50 30 51 bf 5b ac 16 02 c7 22 73 c0
       -0.97012174 -0.81714344 1.1069723e-37 -3.7989976
000080 76 36 0d 40 b4 0a c7 bf 14 12 30 c0 73 56 45 bf
       2.206449 -1.5550141 -2.7511034 -0.77085036
000090 88 29 04 c0 77 b9 50 bf d1 a3 8d c0 76 15 d7 bf
       -2.0650349 -0.81532997 -4.426247 -1.6803424
0000a0 21 b6 15 3f bf cf 0f 40 04 a8 d3 3f 24 ba 42 bf
       0.5848103 2.2470548 1.6535649 -0.7606528
0000b0 d5 a2 7a bf ce db 30 bf f9 f0 0f c0 31 01 0c 3e
       -0.9790471 -0.69085395 -2.2490828 0.1367233
0000c0 46 cb 79 3b 59 d0 d2 bd 8c f1 42 40 f2 95 1c c0
       0.0038115545 -0.102936454 3.0459929 -2.446652
0000d0 ac 20 0e 40 fc ce 38 c0 5f 7e 86 bf 44 07 2c 40
       2.2207441 -2.8876333 -1.0507315 2.6879435
0000e0 45 47 77 bf 3c ed 74 c0 79 66 d9 bf 40 4f 1a 40
       -0.96593124 -3.8269796 -1.6984397 2.411087
0000f0 c1 93 91 bf ff 08 97 bf 3f 9d a4 be 76 18 11 bf
       -1.1373216 -1.179962 -0.3215122 -0.5667795

bn2.running_var f4 [64]
000000 3d 91 fe 40 c0 ee 97 40 7f 4f e1 3f 88 c8 12 41
       7.9552293 4.7478943 1.7602385 9.173958
000010 35 bb 0b 41 3c 31 a2 40 d1 3c aa 41 20 4e 7f 3f
       8.733205 5.06851 21.279696 0.99728584
000020 42 e2 91 40 2e c7 c5 40 96 e1 59 41 2a 41 5d 42
       4.5588694 6.180564 13.617575 55.313637
000030 7f c8 3d 41 ae b5 6d 41 22 cc f9 40 cd 84 56 41
       11.861449 14.856855 7.8061686 13.407422
000040 d7 db 09 41 38 18 b4 40 0b 4d ac 41 b7 73 0f 40
       8.616172 5.6279564 21.537619 2.2414377
000050 58 c2 ed 3e 71 14 eb 40 78 5f 02 42 a1 6a c1 40
       0.46437335 7.3462453 32.59323 6.044266
000060 31 f5 fc 40 75 17 8c 41 de 5e 14 41 91 35 75 40
       7.9049306 17.511454 9.273161 3.8313944
000070 1f e6 13 41 d6 0d de 40 04 00 00 00 9e df 5a 42
       9.243682 6.939189 6e-45 54.718376
000080 07 1e 58 41 ce 01 dc 40 57 09 b4 41 08 ec 1d 40
       13.507331 6.8752203 22.50456 2.4675312
000090 47 ca d0 40 66 a0 f6 40 37 14 31 42 2f 50 e2 3f
       6.524692 7.70708 44.26974 1.768072
0000a0 89 1d 0f 41 12 e0 bc 40 a7 7f 68 41 06 88 25 41
       8.944711 5.9023523 14.531165 10.345709
0000b0 bb bf 82 40 9a aa 73 3f 68 a6 da 40 0e 6a 8a 40
       4.0859046 0.9518219 6.8328133 4.325446
0000c0 38 42 09 3f cb d4 31 3f 0e 44 03 41 2c b4 d5 40
       0.53616667 0.6946532 8.204115 6.6782436
0000d0 c2 db 93 41 6e 8f 2b 41 e1 f0 82 41 42 a7 eb 40
       18.482304 10.722517 16.367617 7.364167
0000e0 c7 61 39 41 5e be 97 41 11 39 ec 40 28 85 19 41
       11.586371 18.967953 7.381966 9.595009
0000f0 b7 25 4c 41 1a bd 21 41 5d d2 3e 41 e6 a0 f1 40
       12.759208 10.108667 11.926358 7.550891

linear3.weight f4 [32, 64]
000000 aa 8b 04 3c 37 7e d6 3f 41 b3 cd bf 73 a0 b3 3d
       0.008089939 1.6757268 -1.6070329 0.08770838
000010 f9 4a d4 bd 39 63 8b 3f c5 67 ba 3e 79 77 4e be
       -0.103658624 1.0889655 0.36407295 -0.20162763
000020 ad 0c 93 be be 54 72 bc 75 f3 0e 3e a1 ea cd be
       -0.28720608 -0.014790712 0.13960059 -0.4021807
000030 84 34 8b 3f c0 04 cd be 11 30 3b bf 55 59 3e c0
       1.0875401 -0.40042686 -0.7312022 -2.9742024
000040 e9 39 0d 3f 4a 33 8a c0 cb 6b c7 bd 6e 60 5d c0
       0.5516649 -4.318761 -0.09737357 -3.4590106
000050 fb ea 6d be 8b b8 78 be d7 c8 ad 3f 6b d8 6a bf
       -0.23234169 -0.24289148 1.3576916 -0.9173648
000060 2f 8f 63 be 53 84 4f 3f ef ce 8a 3d 4b 3c 1b bf
       -0.22222589 0.81061286 0.06777751 -0.60638875
000070 e0 27 17 3d d9 e4 02 3d 9d 8c eb 3c 93 02 34 bf
       0.036903262 0.031956527 0.028753573 -0.7031643
000080 a2 7d 72 bf 4e a1 d8 3e df 79 8c bd 53 7e d9 3f
       -0.9472295 0.42310566 -0.068591826 1.6991676
000090 c7 0b 75 be b8 92 60 3d 8f a0 91 be a7 4d 85 be
       -0.23930274 0.054827422 -0.2844281 -0.26035807
0000a0 5c 84 84 3e 61 af 18 be ee 9d 26 c0 4d 11 8d be
       0.25882232 -0.14910652 -2.6033893 -0.27552262
0000b0 44 30 19 be 59 09 5a 3d a0 b5 75 3e 51 f5 db 3f
       -0.14959818 0.05323157 0.23995066 1.718424
0000c0 5b 9a 46 be da 68 6b be bf fc 7d 3f b6 4e 32 c0
       -0.1939482 -0.22989216 0.99213785 -2.7860541
0000d0 33 d1 7f 3f 78 05 0d bf 9a fc 4a be a1 8b ec 3f
       0.9992859 -0.5508647 -0.19822922 1.8480111
0000e0 6c 17 54 c0 85 45 0f be 58 e6 ca 3d 1f 4d 1f c0
       -3.3139296 -0.13991363 0.09907216 -2.489082
0000f0 4a 0d 83 3f f6 eb 12 3e 71 6f 5a 3e bd 63 83 3c
       1.023843 0.14347824 0.21331574 0.01603877
000100 2b 69 22 3f 06 54 17 3f 51 0e c1 bd 7e 23 9b 3f
       0.63441724 0.59112585 -0.09426559 1.2120206
000110 3c 89 f9 3d 81 60 8c bf 51 8d 44 c0 32 f7 34 be
       0.121843785 -1.0966951 -3.0711253 -0.17672423
000120 e4 38 19 40 88 69 eb 3e 36 25 d5 be e7 c4 bc 3e
       2.3940973 0.4597895 -0.41629952 0.36868975
000130 1e 9c d3 3f 7b 38 18 c0 6f 7c 49 3f c1 fa 3d be
       1.6532018 -2.3784473 0.78705496 -0.18552686
000140 95 a8 b6 be a4 4f 6c be aa d6 af be 40 be 1e bf
       -0.35675493 -0.23077255 -0.34343463 -0.6200905
000150 09 fc 3e bd 8f 0f 20 3f ff 99 e7 bf 82 90 d1 3f
       -0.04662708 0.6252374 -1.8093871 1.6372225
000160 ac 92 52 be 95 fe 07 c0 c0 ea 88 3e 01 89 1a be
       -0.20563763 -2.1249135 0.267416 -0.15091325
000170 23 05 f4 3d 19 0a da 3f 1c f3 f1 3c 1c 41 07 be
       0.11915042 1.7034332 0.029534869 -0.13208431
000180 37 7c 11 40 30 bf de 3e 1b 4d 59 bf b8 cb 49 bf
       2.2732065 0.4350524 -0.8488328 -0.78826475
000190 37 2b 1b 40 a5 a9 2b bd f5 22 61 bf 8b 11 87 3f
       2.4245126 -0.041909833 -0.87943965 1.0552229
0001a0 e2 64 78 bf b9 7d 8d 3f 54 89 90 be a0 9f 41 3f
       -0.97028935 1.1053993 -0.28229773 0.75634193
0001b0 2c f2 b4 be d1 41 2b bd 3c b8 30 bf 1e d4 49 3f
       -0.35341012 -0.041810814 -0.6903112 0.7883929
0001c0 7c 01 bc 3e bc 35 a0 3e c0 38 13 3f b7 a8 ed 3d
       0.36719882 0.31290996 0.5750847 0.116044454
0001d0 69 de fa 3e 21 85 0c 3f 53 25 8a bf 53 09 c4 3e
       0.4899781 0.5489064 -1.079264 0.38288364
0001e0 e9 55 86 be 9a 03 2a bf d6 d0 26 3a 66 cc f9 bd
       -0.2623742 -0.66411746 0.00063635164 -0.12197189
0001f0 ad 3e 7d 3e bd 63 8f 3f d2 42 82 3f 9f 56 71 3b
       0.2473094 1.1202313 1.0176642 0.0036825312
000200 66 6e cc 3f e9 20 89 3e 73 8c 1a 3d 23 38 84 3f
       1.5971191 0.2678292 0.0377316 1.0329632
000210 09 54 13 3f fc 49 12 be 4f cf f7 bf ed a4 a5 be
       0.575501 -0.14286035 -1.936014 -0.3235239
000220 f8 b1 18 40 7f 97 8a 3f 0c 32 12 c0 c4 64 4c bf
       2.3858624 1.0827483 -2.2843046 -0.79841256
000230 53 e1 ed 3f b8 53 0b c0 4c ca 37 3f 63 12 83 be
       1.8584388 -2.1769848 0.71793056 -0.25599965
000240 2b 7b 4b be ca ba d7 3d 9f da 05 bf 23 70 be 3b
       -0.19871204 0.10533674 -0.52286714 0.0058117076
000250 86 45 17 3e d9 80 8e 3f 9a a3 80 bf 2c a5 d9 3f
       0.14772615 1.1133071 -1.0049927 1.7003531
000260 d8 a3 ac 3d 6f 0e 76 bf 44 05 b4 bd 43 c0 c2 be
       0.08429688 -0.96115774 -0.08790067 -0.3803731
000270 40 34 8e 3e 02 63 c2 3f 9d ce 09 3d 05 7f b0 bf
       0.2777424 1.5186465 0.033644307 -1.3788763
000280 7b b3 f0 3f 57 87 4d 3d 7e 1a 91 bf 64 73 de 3d
       1.8804773 0.0501779 -1.133621 0.10861853
000290 21 77 49 40 e7 48 7c 3d 27 aa c0 3e 01 b3 39 3f
       3.147896 0.061592963 0.37629816 0.72538763
0002a0 4d 68 2f bf ea 2b 25 3f c9 25 a9 be 17 e8 2a 3f
       -0.68518525 0.6452013 -0.3303664 0.6676039
0002b0 6c 8c 65 be 74 d1 7a 3d 12 9a 2f bf 73 1d 58 3f
       -0.22416848 0.061234906 -0.6859447 0.84419936
0002c0 c1 52 23 3e d7 35 00 3e 16 9e fa 3e ed 8e 8b 3e
       0.15949537 0.12520538 0.48948735 0.2725748
0002d0 c6 dc 81 3f 0e 92 49 3e 04 5f 96 bf 2c 7c 14 3f
       1.01455 0.19684622 -1.1747746 0.5800197
0002e0 ed 09 a2 be 3e 8d 0c bf 8a 1c 10 ba 65 79 a9 bd
       -0.31648198 -0.5490302 -0.0005497417 -0.08275107
0002f0 c3 e6 03 3f 52 21 31 3f 9f af a9 3f e9 94 68 3e
       0.5152399 0.6919147 1.325672 0.22713055
000300 a2 01 28 be e3 cc 56 bb 0f 4b f1 3e 15 3c 19 be
       -0.16406873 -0.003277593 0.47127578 -0.14964326
000310 36 90 f7 bd e2 ae 5b 3e 41 b6 b9 3d db 46 96 bc
       -0.12088053 0.21453431 0.09067965 -0.018344333
000320 c8 c5 12 be 5e aa 5c be 02 c6 8c bd bf b4 29 bd
       -0.1433326 -0.21549365 -0.068737045 -0.04143214
000330 08 b0 be bc f4 70 cf bc ce d0 f6 3d c8 20 88 be
       -0.023277298 -0.025322415 0.12051545 -0.2658751
000340 a3 2f bf bc 9c ae 1a bd eb 36 6f bd a8 1a 93 3e
       -0.023338145 -0.037764177 -0.058401983 0.28731275
000350 f7 06 76 3a 14 d8 f1 bd 52 28 17 be d4 bd 29 3e
       0.0009385193 -0.11808792 -0.14761475 0.1657632
000360 26 75 1e be d1 b2 7e be 8b 36 84 be 27 10 52 be
       -0.15474376 -0.248729 -0.25822863 -0.20513974
000370 67 d2 82 be 77 ad 2a be 50 e3 a9 80 cb 1b f6 bd
       -0.2555115 -0.16667734 -1.5601743e-38 -0.1201702
000380 dc 7e eb bc 58 c4 14 bd d2 f2 34 3d 72 93 19 01
       -0.028747015 -0.03632006 0.044176884 2.820745e-38
000390 13 eb 86 be 4b 1e b6 be 3c 10 c7 be c8 70 4b be
       -0.26351222 -0.35569987 -0.38879573 -0.19867241
0003a0 24 07 0f 3e bf 2b 27 3e f1 91 8c bc d6 be 72 be
       0.13967568 0.16325282 -0.017159434 -0.2370561
0003b0 b8 10 30 be 30 c0 24 01 11 4a ed 3d 85 b8 90 3b
       -0.17193878 3.025993e-38 0.11586393 0.0044165277
0003c0 e9 6a ab 3d 43 b7 04 3e 79 60 6a bd 55 85 a9 bd
       0.08370001 0.12960534 -0.05722091 -0.08277384
0003d0 f6 6d 5a 3e 0d 4f 9a bd 1e e6 bf 39 f7 2b 22 bc
       0.2133101 -0.07534609 0.0003660181 -0.009898177
0003e0 d5 e9 48 be 7d fd a1 bd 60 9d 86 3d b6 6f b9 3d
       -0.1962045 -0.07909677 0.06572986 0.0905451
0003f0 93 ed a4 bd da 18 40 be f3 03 4b be de e0 82 be
       -0.08053126 -0.1875948 -0.19825725 -0.25562185

linear3.bias f4 [32]
000000 6c 7f 85 bf d1 33 2b 3f 77 09 86 3e a7 88 f2 3c
       -1.0429511 0.6687594 0.26179096 0.029606177
000010 2a d8 a2 3d e8 ea ea 3c a4 26 0a bf 52 8e 09 bf
       0.07951386 0.028676465 -0.5396521 -0.5373279
000020 cc a3 5b be da b7 10 3f 20 d2 80 3f 8d 14 e1 be
       -0.21449202 0.56530535 1.0064125 -0.43960992
000030 ea 7f 58 be f0 30 cc be d2 cd 97 be f8 e8 5c bf
       -0.21142545 -0.39881086 -0.29649216 -0.8629298
000040 a4 b0 04 3f 33 4a 09 40 93 50 d2 3f ec f8 7d 3c
       0.5183203 2.1451538 1.6430839 0.015501242
000050 4d c0 85 bf 5a ef d6 3e a1 8b 7f 3d 25 1e 76 be
       -1.044931 0.41979486 0.06238902 -0.24034937
000060 aa c4 4c be 37 43 5e 3e 55 17 74 3e 00 bc bb 3e
       -0.19996896 0.21705328 0.23837025 0.3666687
000070 48 59 81 3e f2 63 6e be b3 85 ac bf 1c 33 12 40
       0.2526343 -0.23280314 -1.3478302 2.2843695

bn3.weight f4 [32]
000000 33 06 83 3f ec 6e b6 3e 58 e1 0e 3f 33 fd eb 3e
       1.0236267 0.35631502 0.558126 0.46091613
000010 0a 74 e0 3e b2 93 38 3f 77 2e 56 3f 40 a9 08 3f
       0.4383853 0.72100365 0.8366465 0.53383255
000020 a1 19 17 3f 67 48 2a 3f 5f 39 25 3f d2 5b 06 3f
       0.5902348 0.6651673 0.64540666 0.52483857
000030 63 33 fb 3e b7 a1 71 3e 9d 86 18 3f dd f6 3f 3f
       0.49062642 0.23596846 0.59580404 0.7498606
000040 ea eb 80 3f 78 2f 1b 3f 5d d7 2c 3f 36 ca 7c 3e
       1.0071995 0.60619307 0.6751612 0.24686512
000050 5f 4d 0b 3f e2 14 16 3f 7a a9 2b 3e a4 8d 0b 3f
       0.54414934 0.58625615 0.16763869 0.54513
000060 9f 4c 05 3f b3 8b 0c 3f a8 39 16 3f 5a 17 48 3f
       0.5207004 0.54900664 0.58681726 0.7816063
000070 e7 62 c5 3e 9b e9 40 3f 58 19 16 3f ff c1 e7 3e
       0.3855202 0.75356454 0.5863242 0.45265195

bn3.bias f4 [32]
000000 47 20 e9 be b8 72 2d be 83 ee 66 bf 50 9b fe bf
       -0.45532438 -0.16938293 -0.9020769 -1.9891148
000010 07 72 4a be a0 09 73 bf a6 cd 16 bf c1 22 32 c0
       -0.1977006 -0.9493656 -0.58907545 -2.7833712
000020 77 aa ca bf 69 30 02 bf d1 4c a9 bf 72 ef 56 bf
       -1.5833272 -0.5085512 -1.3226568 -0.83959115
000030 79 3b 27 c0 76 40 1f bd fa ab 44 c0 43 01 80 bf
       -2.613005 -0.038879834 -3.0729966 -1.0000385
000040 cc 25 af bf 6c 2e b8 bf c9 02 9a bf 71 33 0e be
       -1.368341 -1.4389167 -1.20321 -0.13886811
000050 f2 8c 33 bf 7b 64 c8 be 5c be 63 3c 58 d1 3f c0
       -0.7013694 -0.3913916 0.013900366 -2.9971523
000060 1e 1c 3e c0 43 54 3c c0 9f bb 66 bf c8 3b 52 bf
       -2.9704661 -2.942643 -0.9013004 -0.8212247
000070 74 f7 dc bf 18 3a bf bf 82 06 af be 0f 75 79 be
       -1.7263017 -1.4939604 -0.34184653 -0.2436106

bn3.running_mean f4 [32]
000000 7f 69 48 c0 d6 d2 da 3f ad 86 f3 3f 61 18 96 bf
       -3.131439 1.7095592 1.9025475 -1.172619
000010 74 ec 05 c0 1a 3e d7 c0 e3 e5 79 c0 85 d3 91 be
       -2.092557 -6.7263308 -3.9046562 -0.2848169
000020 c2 9b 0c c1 55 a3 53 c0 2c 45 e1 c0 2c 83 c5 3f
       -8.788027 -3.306844 -7.039694 1.5430655
000030 2e 42 8d c0 6e 72 06 3f f0 fc 33 3d 23 8a bc c0
       -4.4143286 0.52518356 0.043942392 -5.8918624
000040 4d 7d ca bf 85 d8 21 40 6b 11 b6 c0 a1 92 8d c0
       -1.5819489 2.5288403 -5.689626 -4.424149
000050 5a db c6 c0 b3 e9 5f c0 6c 91 c5 3f fe 83 8d 3d
       -6.2142763 -3.4986389 1.5435004 0.06909941
000060 6d 7f c3 3e d8 64 49 3f 06 c8 08 c1 9c 77 0b c0
       0.38183156 0.786695 -8.548834 -2.1791754
000070 64 60 38 c0 59 c2 f8 c0 54 21 80 c0 0b 1d f1 3e
       -2.8808832 -7.773724 -4.0040684 0.4709247
